…
 * 768 \\\\ = &amp;12*(7077888+3072)+16226304 \\\\  = &amp;101197824 \\\\ = &amp;101M \\end{split} <p>\u4e5f\u5c31\u662f\u8bf4\u5927\u6982 101M \u7684\u53c2\u6570\u91cf\uff0c\u76f8\u6bd4\u4e8e\u5b98\u65b9\u6240\u8bf4\u7684 110M\uff0c\u8fd9\u5176\u4e2d\u7684\u5dee\u8ddd\u4e3b\u8981\u5305\u62ec\u6700\u540e\u7684\u5206\u7c7b\u5668\u5c42\uff0c\u4ee5\u53ca\u4e0a\u8ff0\u8ba1\u7b97\u8fc7\u7a0b\u4e2d\u90fd\u6ca1\u6709\u8003\u8651\u504f\u7f6e\u9879\uff08bias\uff09\u3002</p> <p>BERT\u7ed3\u6784\u5982\u4e0b\u6240\u793a\uff1a</p> <pre><code>BertModel(\n  (embeddings): BertEmbeddings(\n    (word_embeddings): Embedding(21128, 768, padding_idx=0)\n    (position_embeddings): Embedding(512, 768)\n    (token_type_embeddings): Embedding(2, 768)\n    (LayerNorm): LayerNorm((768,), eps=1e-12, elementwise_affine=True)\n    (dropout): Dropout(p=0.1, inplace=False)\n  )\n  (encoder): BertEncoder(\n    (layer): ModuleList(\n      (0-11): 12 x BertLayer(\n        (attention): BertAttention(\n          (self): BertSelfAttention(\n            (query): Linear(in_features=768, out_features=768, bias=True)\n            (key): Linear(in_features=768, out_features=768, bias=True)\n            (value): Linear(in_features=768, out_features=768, bias=True)\n            (dropout): Dropout(p=0.1, inplace=False)\n          )\n          (output): BertSelfOutput(\n            (dense): Linear(in_features=768, out_features=768, bias=True)\n            (LayerNorm): LayerNorm((768,), eps=1e-12, elementwise_affine=True)\n            (dropout): Dropout(p=0.1, inplace=False)\n          )\n        )\n        (intermediate): BertIntermediate(\n          (dense): Linear(in_features=768, out_features=3072, bias=True)\n          (intermediate_act_fn): GELUActivation()\n        )\n        (output): BertOutput(\n          (dense): Linear(in_features=3072, out_features=768, bias=True)\n          (LayerNorm): LayerNorm((768,), eps=1e-12, elementwise_affine=True)\n          (dropout): Dropout(p=0.1, inplace=False)\n        )\n      )\n    )\n  )\n  (pooler): BertPooler(\n    (dense): Linear(in_features=768, out_features=768, bias=True)\n    (activation): Tanh()\n  )\n)\n</code></pre>"},{"location":"%E5%8F%82%E6%95%B0%E9%87%8F%E5%88%86%E6%9E%90/#2llama-65b","title":"2\u3001LLAMA-65B \u53c2\u6570\u91cf","text":""},{"location":"%E5%8F%82%E6%95%B0%E9%87%8F%E5%88%86%E6%9E%90/#21-llama-65b","title":"2.1 LLAMA-65B \u53c2\u6570\u91cf","text":"<p>LLAMA \u4e2d\u4f1a\u4f7f\u7528 SWiGLU \u7ed3\u
…
